…
oad_state_dict(torch.load(model_weights_path))\n\n# Set the model to evaluation mode if you're doing inference\nmodel.eval()","metadata":{"execution":{"iopub.status.busy":"2024-03-30T15:03:30.598138Z","iopub.execute_input":"2024-03-30T15:03:30.599285Z","iopub.status.idle":"2024-03-30T15:03:31.674091Z","shell.execute_reply.started":"2024-03-30T15:03:30.599246Z","shell.execute_reply":"2024-03-30T15:03:31.672973Z"},"scrolled":true,"trusted":true},"execution_count":10,"outputs":[{"execution_count":10,"output_type":"execute_result","data":{"text/plain":"CustomResNet(\n  (model): ResNet(\n    (conv1): Conv2d(3, 64, kernel_size=(7, 7), stride=(2, 2), padding=(3, 3), bias=False)\n    (bn1): BatchNorm2d(64, eps=1e-05, momentum=0.1, affine=True, track_running_stats=True)\n    (act1): ReLU(inplace=True)\n    (maxpool): MaxPool2d(kernel_size=3, stride=2, padding=1, dilation=1, ceil_mode=False)\n    (layer1): Sequential(\n      (0): Bottleneck(\n        (conv1): Conv2d(64, 64, kernel_size=(1, 1), stride=(1, 1), bias=False)\n        (bn1): BatchNorm2d(64, eps=1e-05, momentum=0.1, affine=True, track_running_stats=True)\n        (act1): ReLU(inplace=True)\n        (conv2): Conv2d(64, 64, kernel_size=(3, 3), stride=(1, 1), padding=(1, 1), bias=False)\n        (bn2): BatchNorm2d(64, eps=1e-05, momentum=0.1, affine=True, track_running_stats=True)\n        (drop_block): Identity()\n        (act2): ReLU(inplace=True)\n        (aa): Identity()\n        (conv3): Conv2d(64, 256, kernel_size=(1, 1), stride=(1, 1), bias=False)\n        (bn3): BatchNorm2d(256, eps=1e-05, momentum=0.1, affine=True, track_running_stats=True)\n        (act3): ReLU(inplace=True)\n        (downsample): Sequential(\n          (0): Conv2d(64, 256, kernel_size=(1, 1), stride=(1, 1), bias=False)\n          (1): BatchNorm2d(256, eps=1e-05, momentum=0.1, affine=True, track_running_stats=True)\n        )\n      )\n      (1): Bottleneck(\n        (conv1): Conv2d(256, 64, kernel_size=(1, 1), stride=(1, 1), bias=False)\n        (bn1): BatchNorm2d(64, eps=1e-05, momentum=0.1, affine=True, track_running_stats=True)\n        (act1): ReLU(inplace=True)\n        (conv2): Conv2d(64, 64, kernel_size=(3, 3), stride=(1, 1), padding=(1, 1), bias=False)\n        (bn2): BatchNorm2d(64, eps=1e-05, momentum=0.1, affine=True, track_running_stats=True)\n        (drop_block): Identity()\n        (act2): ReLU(inplace=True)\n        (aa): Identity()\n        (conv3): Conv2d(64, 256, kernel_size=(1, 1), stride=(1, 1), bias=False)\n        (bn3): BatchNorm2d(256, eps=1e-05, momentum=0.1, affine=True, track_running_stats=True)\n        (act3): ReLU(inplace=True)\n      )\n      (2): Bottleneck(\n        (conv1): Conv2d(256, 64, kernel_size=(1, 1), stride=(1, 1), bias=False)\n        (bn1): BatchNorm2d(64, eps=1e-05, momentum=0.1, affine=True, track_running_stats=True)\n        (act1): ReLU(inplace=True)\n        (conv2): Conv2d(64, 64, kernel_size=(3, 3), stride=(1, 1), padding=(1, 1), bias=False)\n        (bn2): BatchNorm2d(64, eps=1e-05, momentum=0.1, affine=True, track_running_stats=True)\n        (drop_block): Identity()\n        (act2): ReLU(inplace=True)\n        (aa): Identity()\n        (conv3): Conv2d(64, 256, kernel_size=(1, 1), stride=(1, 1), bias=False)\n        (bn3): BatchNorm2d(256, eps=1e-05, momentum=0.1, affine=True, track_running_stats=True)\n        (act3): ReLU(inplace=True)\n      )\n    )\n    (layer2): Sequential(\n      (0): Bottleneck(\n        (conv1): Conv2d(256, 128, kernel_size=(1, 1), stride=(1, 1), bias=False)\n        (bn1): BatchNorm2d(128, eps=1e-05, momentum=0.1, affine=True, track_running_stats=True)\n        (act1): ReLU(inplace=True)\n        (conv2): Conv2d(128, 128, kernel_size=(3, 3), stride=(2, 2), padding=(1, 1), bias=False)\n        (bn2): BatchNorm2d(128, eps=1e-05, momentum=0.1, affine=True, track_running_stats=True)\n        (drop_block): Identity()\n        (act2): ReLU(inplace=True)\n        (aa): Identity()\n        (conv3): Conv2d(128, 512, kernel_size=(1, 1), stride=(1, 1), bias=False)\n        (bn3): BatchNorm2d(512, eps=1e-05, momentum=0.1, affine=True, track_running_stats=True)\n        (act3): ReLU(inplace=True)\n        (downsample): Sequential(\n          (0): Conv2d(256, 512, kernel_size=(1, 1), stride=(2, 2), bias=False)\n          (1): BatchNorm2d(512, eps=1e-05, momentum=0.1, affine=True, track_running_stats=True)\n        )\n      )\n      (1): Bottleneck(\n        (conv1): Conv2d(512, 128, kernel_size=(1, 1), stride=(1, 1), bias=False)\n        (bn1): BatchNorm2d(128, eps=1e-05, momentum=0.1, affine=True, track_running_stats=True)\n        (act1): ReLU(inplace=True)\n        (conv2): Conv2d(128, 128, kernel_size=(3, 3), stride=(1, 1), padding=(1, 1), bias=False)\n        (bn2): BatchNorm2d(128, eps=1e-05, momentum=0.1, affine=True, track_running_stats=True)\n        (drop_block): Identity()\n        (act2): ReLU(inplace=True)\n        (aa): Identity()\n        (conv3): Conv2d(128, 512, kernel_size=(1, 1), stride=(1, 1), bias=False)\n        (bn3): BatchNorm2d(512, eps=1e-05, momentum=0.1, affine=True, track_running_stats=True)\n        (act3): ReLU(inplace=True)\n      )\n      (2): Bottleneck(\n        (conv1): Conv2d(512, 128, kernel_size=(1, 1), stride=(1, 1), bias=False)\n        (bn1): BatchNorm2d(128, eps=1e-05, momentum=0.1, affine=True, track_running_stats=True)\n        (act1): ReLU(inplace=True)\n        (conv2): Conv2d(128, 128, kernel_size=(3, 3), stride=(1, 1), padding=(1, 1), bias=False)\n        (bn2): BatchNorm2d(128, eps=1e-05, momentum=0.1, affine=True, track_running_stats=True)\n        (drop_block): Identity()\n        (act2): ReLU(inplace=True)\n        (aa): Identity()\n        (conv3): Conv2d(128, 512, kernel_size=(1, 1), stride=(1, 1), bias=False)\n        (bn3): BatchNorm2d(512, eps=1e-05, momentum=0.1, affine=True, track_running_stats=True)\n        (act3): ReLU(inplace=True)\n      )\n      (3): Bottleneck(\n        (conv1): Conv2d(512, 128, kernel_size=(1, 1), stride=(1, 1), bias=False)\n        (bn1): BatchNorm2d(128, eps=1e-05, momentum=0.1, affine=True, track_running_stats=True)\n        (act1): ReLU(inplace=True)\n        (conv2): Conv2d(128, 128, kernel_size=(3, 3), stride=(1, 1), padding=(1, 1), bias=False)\n        (bn2): BatchNorm2d(128, eps=1e-05, momentum=0.1, affine=True, track_running_stats=True)\n        (drop_block): Identity()\n        (act2): ReLU(inplace=True)\n        (aa): Identity()\n        (conv3): Conv2d(128, 512, kernel_size=(1, 1), stride=(1, 1), bias=False)\n        (bn3): BatchNorm2d(512, eps=1e-05, momentum=0.1, affine=True, track_running_stats=True)\n        (act3): ReLU(inplace=True)\n      )\n    )\n    (layer3): Sequential(\n      (0): Bottleneck(\n        (conv1): Conv2d(512, 256, kernel_size=(1, 1), stride=(1, 1), bias=False)\n        (bn1): BatchNorm2d(256, eps=1e-05, momentum=0.1, affine=True, track_running_stats=True)\n        (act1): ReLU(inplace=True)\n        (conv2): Conv2d(256, 256, kernel_size=(3, 3), stride=(2, 2), padding=(1, 1), bias=False)\n        (bn2): BatchNorm2d(256, eps=1e-05, momentum=0.1, affine=True, track_running_stats=True)\n        (drop_block): Identity()\n        (act2): ReLU(inplace=True)\n        (aa): Identity()\n        (conv3): Conv2d(256, 1024, kernel_size=(1, 1), stride=(1, 1), bias=False)\n        (bn3): BatchNorm2d(1024, eps=1e-05, momentum=0.1, affine=True, track_running_stats=True)\n        (act3): ReLU(inplace=True)\n        (downsample): Sequential(\n          (0): Conv2d(512, 1024, kernel_size=(1, 1), stride=(2, 2), bias=False)\n          (1): BatchNorm2d(1024, eps=1e-05, momentum=0.1, affine=True, track_running_stats=True)\n        )\n      )\n      (1): Bottleneck(\n        (conv1): Conv2d(1024, 256, kernel_size=(1, 1), stride=(1, 1), bias=False)\n        (bn1): BatchNorm2d(256, eps=1e-05, momentum=0.1, affine=True, track_running_stats=True)\n        (act1): ReLU(inplace=True)\n        (conv2): Conv2d(256, 256, kernel_size=(3, 3), stride=(1, 1), padding=(1, 1), bias=False)\n        (bn2): BatchNorm2d(256, eps=1e-05, momentum=0.1, affine=True, track_running_stats=True)\n        (drop_block): Identity()\n        (act2): ReLU(inplace=True)\n        (aa): Identity()\n        (conv3): Conv2d(256, 1024, kernel_size=(1, 1), stride=(1, 1), bias=False)\n        (bn3): BatchNorm2d(1024, eps=1e-05, momentum=0.1, affine=True, track_running_stats=True)\n        (act3): ReLU(inplace=True)\n      )\n      (2): Bottleneck(\n        (conv1): Conv2d(1024, 256, kernel_size=(1, 1), stride=(1, 1), bias=False)\n        (bn1): BatchNorm2d(256, eps=1e-05, momentum=0.1, affine=True, track_running_stats=True)\n        (act1): ReLU(inplace=True)\n        (conv2): Conv2d(256, 256, kernel_size=(3, 3), stride=(1, 1), padding=(1, 1), bias=False)\n        (bn2): BatchNorm2d(256, eps=1e-05, momentum=0.1, affine=True, track_running_stats=True)\n        (drop_block): Identity()\n        (act2): ReLU(inplace=True)\n        (aa): Identity()\n        (conv3): Conv2d(256, 1024, kernel_size=(1, 1), stride=(1, 1), bias=False)\n        (bn3): BatchNorm2d(1024, eps=1e-05, momentum=0.1, affine=True, track_running_stats=True)\n        (act3): ReLU(inplace=True)\n      )\n      (3): Bottleneck(\n        (conv1): Conv2d(1024, 256, kernel_size=(1, 1), stride=(1, 1), bias=False)\n        (bn1): BatchNorm2d(256, eps=1e-05, momentum=0.1, affine=True, track_running_stats=True)\n        (act1): ReLU(inplace=True)\n        (conv2): Conv2d(256, 256, kernel_size=(3, 3), stride=(1, 1), padding=(1, 1), bias=False)\n        (bn2): BatchNorm2d(256, eps=1e-05, momentum=0.1, affine=True, track_running_stats=True)\n        (drop_block): Identity()\n        (act2): ReLU(inplace=True)\n        (aa): Identity()\n        (conv3): Conv2d(256, 1024, kernel_size=(1, 1), stride=(1, 1), bias=False)\n        (bn3): BatchNorm2d(1024, eps=1e-05, momentum=0.1, affine=True, track_running_stats=True)\n        (act3): ReLU(inplace=True)\n      )\n      (4): Bottleneck(\n        (conv1): Conv2d(1024, 256, kernel_size=(1, 1), stride=(1, 1), bias=False)\n        (bn1): BatchNorm2d(256, eps=1e-05, momentum=0.1, affine=True, track_running_stats=True)\n        (act1): ReLU(inplace=True)\n        (conv2): Conv2d(256, 256, kernel_size=(3, 3), stride=(1, 1), padding=(1, 1), bias=False)\n        (bn2): BatchNorm2d(256, eps=1e-05, momentum=0.1, affine=True, track_running_stats=True)\n        (drop_block): Identity()\n        (act2): ReLU(inplace=True)\n        (aa): Identity()\n        (conv3): Conv2d(256, 1024, kernel_size=(1, 1), stride=(1, 1), bias=False)\n        (bn3): BatchNorm2d(1024, eps=1e-05, momentum=0.1, affine=True, track_running_stats=True)\n        (act3): ReLU(inplace=True)\n      )\n      (5): Bottleneck(\n        (conv1): Conv2d(1024, 256, kernel_size=(1, 1), stride=(1, 1), bias=False)\n        (bn1): BatchNorm2d(256, eps=1e-05, momentum=0.1, affine=True, track_running_stats=True)\n        (act1): ReLU(inplace=True)\n        (conv2): Conv2d(256, 256, kernel_size=(3, 3), stride=(1, 1), padding=(1, 1), bias=False)\n        (bn2): BatchNorm2d(256, eps=1e-05, momentum=0.1, affine=True, track_running_stats=True)\n        (drop_block): Identity()\n        (act2): ReLU(inplace=True)\n        (aa): Identity()\n        (conv3): Conv2d(256, 1024, kernel_size=(1, 1), stride=(1, 1), bias=False)\n        (bn3): BatchNorm2d(1024, eps=1e-05, momentum=0.1, affine=True, track_running_stats=True)\n        (act3): ReLU(inplace=True)\n      )\n    )\n    (layer4): Sequential(\n      (0): Bottleneck(\n        (conv1): Conv2d(1024, 512, kernel_size=(1, 1), stride=(1, 1), bias=False)\n        (bn1): BatchNorm2d(512, eps=1e-05, momentum=0.1, affine=True, track_running_stats=True)\n        (act1): ReLU(inplace=True)\n        (conv2): Conv2d(512, 512, kernel_size=(3, 3), stride=(2, 2), padding=(1, 1), bias=False)\n        (bn2): BatchNorm2d(512, eps=1e-05, momentum=0.1, affine=True, track_running_stats=True)\n        (drop_block): Identity()\n        (act2): ReLU(inplace=True)\n        (aa): Identity()\n        (conv3): Conv2d(512, 2048, kernel_size=(1, 1), stride=(1, 1), bias=False)\n        (bn3): BatchNorm2d(2048, eps=1e-05, momentum=0.1, affine=True, track_running_stats=True)\n        (act3): ReLU(inplace=True)\n        (downsample): Sequential(\n          (0): Conv2d(1024, 2048, kernel_size=(1, 1), stride=(2, 2), bias=False)\n          (1): BatchNorm2d(2048, eps=1e-05, momentum=0.1, affine=True, track_running_stats=True)\n        )\n      )\n      (1): Bottleneck(\n        (conv1): Conv2d(2048, 512, kernel_size=(1, 1), stride=(1, 1), bias=False)\n        (bn1): BatchNorm2d(512, eps=1e-05, momentum=0.1, affine=True, track_running_stats=True)\n        (act1): ReLU(inplace=True)\n        (conv2): Conv2d(512, 512, kernel_size=(3, 3), stride=(1, 1), padding=(1, 1), bias=False)\n        (bn2): BatchNorm2d(512, eps=1e-05, momentum=0.1, affine=True, track_running_stats=True)\n        (drop_block): Identity()\n        (act2): ReLU(inplace=True)\n        (aa): Identity()\n        (conv3): Conv2d(512, 2048, kernel_size=(1, 1), stride=(1, 1), bias=False)\n        (bn3): BatchNorm2d(2048, eps=1e-05, momentum=0.1, affine=True, track_running_stats=True)\n        (act3): ReLU(inplace=True)\n      )\n      (2): Bottleneck(\n        (conv1): Conv2d(2048, 512, kernel_size=(1, 1), stride=(1, 1), bias=False)\n        (bn1): BatchNorm2d(512, eps=1e-05, momentum=0.1, affine=True, track_running_stats=True)\n        (act1): ReLU(inplace=True)\n        (conv2): Conv2d(512, 512, kernel_size=(3, 3), stride=(1, 1), padding=(1, 1), bias=False)\n        (bn2): BatchNorm2d(512, eps=1e-05, momentum=0.1, affine=True, track_running_stats=True)\n        (drop_block): Identity()\n        (act2): ReLU(inplace=True)\n        (aa): Identity()\n        (conv3): Conv2d(512, 2048, kernel_size=(1, 1), stride=(1, 1), bias=False)\n        (bn3): BatchNorm2d(2048, eps=1e-05, momentum=0.1, affine=True, track_running_stats=True)\n        (act3): ReLU(inplace=True)\n      )\n    )\n    (global_pool): SelectAdaptivePool2d(pool_type=avg, flatten=Flatten(start_dim=1, end_dim=-1))\n    (fc): Linear(in_features=2048, out_features=2, bias=True)\n  )\n)"},"metadata":{}}]},{"cell_type":"code","source":"device = torch.device(\"cuda\" if torch.cuda.is_available() else \"cpu\")\n\n\nmodel.to(device)\n\ncriterion = nn.CrossEntropyLoss()\noptimizer = optim.Adam(model.parameters(), lr=0.001)\nscheduler = optim.lr_scheduler.StepLR(optimizer, step_size=30, gamma=0.1)","metadata":{"execution":{"iopub.sta
…
